main_model/final_model_full.pth (torch, 232773 bytes, 15 tensors)

features.0.weight f4 [16, 3, 3, 3]
00000000: 4ea1 143c 5f3c b63c 52cb a63d 4b06 2abe
00000010: 1f35 b83d 4d1a 6dbd 79e8 7f3d 7f1c 08be
00000020: 3fc0 42be 2f7a fb3c eeb6 803a 4aef 38be
00000030: 8343 9dbd 183e f7bd 44a6 403e 2252 1fbd
00000040: 5803 203e 2c9e a0bd b2ff 59bc 1766 c63c
00000050: 59f8 273d f205 6bbd 2178 3e3e 89c5 a83d
00000060: 4e66 fa3d 57fb 233e ec59 04be f7de 0f3c
00000070: 4d59 433e f7a5 06be 5f69 003e 0453 263e
00000080: 27c5 233e b334 cdbd 0610 013e 9418 1bbe
00000090: 44da a5bd e289 543d d77b 23be 8ae5 2a3e
000000a0: 41e1 20be 22e4 153c 2afb 3f3c 245d 2fbc
000000b0: 0e61 e0bd e108 3bbe 8270 0c3e d7f2 00be
000000c0: 1fff 17bd 20eb 00bc eeac 433e 17a1 513e
000000d0: f238 66bd 640b 4d3e e68f 05be 51ae bc3d
000000e0: c62f 963d f155 78bc c2f0 0dbe 0a8a 363d
000000f0: b44a 0f3e c6a1 e63d 0fd0 2dbc c370 963d
00000100: 04d9 463d 55b8 66bd 1bc3 babc 5687 5e3c
00000110: 9def 7abd 4dbb 2ebe 8340 30bc f0e0 36bc
00000120: dde0 9e3d f4fe 713d 2616 20be 6ff3 5f3e
00000130: 031b 123e 4fab a43d 0e6b 9cbd 678e 393e
00000140: 8e35 39be fce9 a3bd b4a1 4b3e 6376 4bbc
00000150: d58d 9c3d 2d88 d6bd c792 433e bf75 18be
00000160: 634f b33d fc93 413e d59d 22bd b5c3 44be
00000170: c92e 193d 2e49 1d3e ec5e 93bd f5e6 53bd
00000180: 27e3 04be 6567 80bd 8aaa 163e 3696 bcbd
00000190: 7512 7c3a 7378 3fbd 35ea 0c3e 524b 263e
000001a0: b621 2ebe e0b0 123d 8155 9abd b66d bebd
000001b0: e34a 8dbd d7cb a8bd 03c0 28be a0ae bfbd
000001c0: d9e4 333e 236a 8b3d d435 303e 5203 f03d
000001d0: 3455 f03c 53d2 39be 7e10 01bd d1ec 89bb
000001e0: e32b 193e 4b4a e23c 1cd5 87bd 0269 b03d
000001f0: 5d9a 823d 90d9 13be 93b1 9f3d f155 77bd
00000200: 16aa 66bd 797d bd3d 2aca 303e 601f 1ebe
00000210: 58b2 11bd a3d4 53bd 1b7b 0b3e a60d 3ebd
00000220: f0f5 0bbe 3c56 c4bd 5de2 4dbc 51ef f83d
00000230: 8d16 003e 1bad 2bbe 23ef ce3d 2c38 be3d
00000240: 40e4 c23c 710d 10bd 0b8f 083e 6ba3 2fbe
00000250: c628 2c3d a85c 3d3e dbe6 1c3e 4555 a3bd
00000260: 8cc9 823d 8c07 17be 3056 f23d 716b 3e3e
00000270: d2b0 dabd c6e9 003e ea1d acbd b2cd 493d
00000280: f276 053e bd2f d23d e53b 233e b2d0 acbd
00000290: 2992 aebc 3ed6 de3d 4b74 193e e77c 19be
000002a0: 5f28 15be ba9d 053e 42b3 603c 799d 573e
000002b0: d223 b23d 8b69 31bd 4210 083e 2dd5 f83d
000002c0: 09ad 193d 2322 21be e23f 2dbd 1921 c4bd
000002d0: cd7f 9ebc 8eaf 49bc b8b0 533e 75bb 55bd
000002e0: 5905 abbc e8f0 f53d 214c c8bd 51ec f2bd
000002f0: a98c 4b3e 79e2 ad3c 48eb 6c3d e9e4 43bd
00000300: dfa4 19be 1875 14be d076 00be 1ad8 c3bc
00000310: bdf1 0b3e 1f2b 76bd e00d 5abe 0658 13be
00000320: 0b56 62be f779 43bd 96d7 ab3d 07e7 2fbe
00000330: f3cd b13d 279b edbd bb9b 4f3e 099a aa3d
00000340: fc8f 44bd 9bc3 203d 426b 6ebc 58f1 81bd
00000350: 3a84 efbd 0242 2c3e 8eee 323e 59b0 48bd
00000360: ab36 ab3d 332b ab3d aeae f23d a064 44be
00000370: a946 183e aaba 69bc 3b28 f8bc abf8 273e
00000380: 58a1 3d3e ef32 5ebe 40bc 393e d21e e13d
00000390: 5c32 bfbd e1b5 c9bd 8599 0d3e 27e1 ac3d
000003a0: b4c0 c4bd e028 48ba 9a2e 97bc 355d 32bd
000003b0: 66f2 30be b2e7 3dbd 8cc3 6a3c 1eb7 db3d
000003c0: c264 e1bd e6f0 b53d 81de 223d 91bf 473e
000003d0: a7ee 97bd 68be 8a3d 49ba 933c 7796 c0bd
000003e0: b8be 263e db96 a2bd 0150 1e3e 998b 413d
000003f0: e592 f43d 0c16 64bd 56b8 0a3e ae5f 34be
0.009071661 0.022245584 0.08144249 -0.16603963 0.08994507 -0.05788641 0.062477563 -0.1329212
-0.19018649 0.03069791 0.0009820142 -0.18060032 -0.076788925 -0.1207239 0.18813425 -0.038896687
0.15626276 -0.07842669 -0.013305591 0.024218602 0.041008327 -0.057378717 0.18600513 0.08240802
0.12226544 0.16013847 -0.12924927 0.008781186 0.19077034 -0.13149248 0.12540196 0.16242605
0.15993176 -0.10019817 0.12603769 -0.15146095 -0.080982715 0.051889308 -0.1596521 0.16689125
-0.15710928 0.009148629 0.011717597 -0.010703359 -0.10956012 -0.18265106 0.13714793 -0.12592636
-0.037108537 -0.007868558 0.19108936 0.20471607 -0.05620665 0.20023876 -0.13043174 0.09212936
0.07333331 -0.015157209 -0.13861373 0.044565238 0.1399334 0.112613246 -0.010608687 0.07345726
0.048546806 -0.056328136 -0.022798112 0.013582071 -0.06126367 -0.17063637 -0.010757568 -0.011162028
0.07757733 0.059081033 -0.15633449 0.21870206 0.14268117 0.08040487 -0.076376066 0.18120728
-0.18086836 -0.08003613 0.19885904 -0.012418362 0.0764424 -0.10475192 0.1909896 -0.14888667
0.08755376 0.18904108 -0.0397013 -0.19215281 0.037398133 0.15359947 -0.07195839 -0.05173393
-0.12977277 -0.06269721 0.14713493 -0.09208338 0.00096157874 -0.04674573 0.13761218 0.1623967
-0.17005047 0.035813212 -0.0753584 -0.092982695 -0.06899049 -0.08242004 -0.16479497 -0.09359479
0.17567767 0.06807353 0.17208034 0.11719383 0.029337503 -0.18146639 -0.03150987 -0.004209139
0.14958148 0.027623316 -0.06632444 0.08613779 0.06377099 -0.14438462 0.077975415 -0.060384694
-0.05631455 0.09252448 0.1726462 -0.15441656 -0.035570472 -0.051716458 0.1362118 -0.046399735
-0.13668036 -0.095867604 -0.012566176 0.12155021 0.12508602 -0.16765253 0.101042055 0.09288058
0.023790479 -0.03516907 0.13335817 -0.17152183 0.042031072 0.18492377 0.1532244 -0.07975248
0.06386098 -0.14748973 0.11832845 0.18595673 -0.10678257 0.12589177 -0.08404143 0.049268432
0.13033655 0.102630116 0.15940817 -0.08438243 -0.021309929 0.10880707 0.14985768 -0.14989053
-0.14566182 0.13048449 0.013714613 0.21056165 0.086982384 -0.043313544 0.13287452 0.12150035
0.037518535 -0.15735678 -0.04229725 -0.095766254 -0.01934805 -0.012309922 0.20672882 -0.052180726
-0.020876573 0.1200884 -0.097801454 -0.1186148 0.19877876 0.021226155 0.05784157 -0.047825728
-0.150043 -0.14497793 -0.12545323 -0.023906756 0.13666435 -0.060099717 -0.21294355 -0.14389047
-0.22103135 -0.047723737 0.08390729 -0.17177974 0.0868186 -0.116018586 0.2027425 0.08330161
-0.047988877 0.039249044 -0.014551939 -0.06344861 -0.11695142 0.16822055 0.17473814 -0.048996303
0.083600365 0.08357849 0.11849724 -0.1917901 0.14870705 -0.014265696 -0.03029262 0.16403453
0.18518579 -0.21699117 0.18138218 0.10992207 -0.09335777 -0.09849144 0.13828094 0.08441382
-0.09607068 -0.00076354854 -0.018454839 -0.04354592 -0.17279968 -0.04636354 0.014328849 0.10728286
-0.11005546 0.08883838 0.039762978 0.1950667 -0.07418566 0.06774598 0.018033164 -0.09403699
0.16283691 -0.0793893 0.15460207 0.04725227 0.119420804 -0.055685088 0.13546881 -0.17614624

features.0.bias f4 [16]
00000000: 7e67 c5bd 38ab 10be c97e eabc 5a43 cf3a
00000010: 7563 d9bd 301b 23be 6ee6 11bd ff73 e0bd
00000020: abe9 3bbe d5dd 3a3e 2994 3d3e 954f 42be
00000030: 32c4 5e3d 5cbf 25be 2946 a8bd 9a8f eabc
-0.0963888 -0.14127815 -0.028624909 0.0015812919 -0.10614673 -0.1592834 -0.035620145 -0.109596245
-0.18350856 0.18248685 0.1851355 -0.1897567 0.054386325 -0.16186279 -0.08216507 -0.028632928

features.1.weight f4 [16]
00000000: 76d8 793f 22e3 7c3f 9f46 7f3f ee63 7f3f
00000010: 36bf 7e3f e1ec 7b3f 7228 7d3f 22ee 773f
00000020: 83db 823f f58f 7a3f d3d8 7c3f 542f 7a3f
00000030: d431 783f 3c99 813f e103 863f 0291 823f
0.9759592 0.9878408 0.99717134 0.99761856 0.99510515 0.98408324 0.9888984 0.96847737
1.022324 0.9787591 0.9876835 0.97728467 0.9695103 1.0124888 1.0469934 1.0200503

features.1.bias f4 [16]
00000000: 16b7 ffbc bab5 49bc 7cb8 58bc cc14 f3bc
00000010: d6ec f0bb 35f6 0ebd 29ca 18bd b03f 5cbd
00000020: dc40 813c c6d0 c0bc d6ff 8dbc 2a8b 72bc
00000030: 6843 50bc 4f23 c5bc df49 083b 8e2f bd3a
-0.031215232 -0.012311393 -0.013227578 -0.029673003 -0.007352452 -0.03490277 -0.03730217 -0.053771675
0.015777998 -0.023537051 -0.017333906 -0.014803687 -0.012711383 -0.024064688 0.0020795984 0.0014433728

features.1.running_mean f4 [16]
00000000: b5e1 af3e 7a17 59be 8fef e23d 0e88 c4be
00000010: f31e 03be 10d8 813e ce28 023e 14c0 63bc
00000020: f664 10bf d2e7 943e d29f 7e3f e023 36bd
00000030: d58c 673e 64bd d6be 162f adbe 0808 7cbe
0.34351888 -0.21200362 0.110808484 -0.3838505 -0.12804775 0.25360155 0.12710878 -0.013900775
-0.56404054 0.29083115 0.99462616 -0.044467807 0.22612317 -0.4194137 -0.33824986 -0.24612439

features.1.running_var f4 [16]
00000000: 77f8 9d3b 3bcd 1b3c 78cc 203c 5ad8 713c
00000010: 0ee4 573b d7fb 9f3c 88f7 a73c 9d9d b33c
00000020: 129b 003c 9eed 383c 5c6c e93c 6a84 9a3c
00000030: eb9a d43b 1a5b 973c 8c24 1c3c b59e 253c
0.004820879 0.00950938 0.009814374 0.014761055 0.0032942328 0.019529266 0.020503774 0.021925742
0.007849472 0.011287121 0.028494053 0.018861968 0.006488194 0.018476058 0.009530198 0.0101086395

features.3.weight f4 [32, 16, 3, 3]
00000000: 724a 183d cff3 a53c d218 1f3d e1f2 79bc
00000010: 5e2f a43c ff85 63bd 23be 693d f9d1 babc
00000020: eea3 c3bc 6e75 6cbd 69d8 003d 66b5 3f3d
00000030: 1b25 4cbd 674f a13d 878b b83d c0a6 733c
00000040: 9234 9bbd 8b24 b8bd 3a35 5abd da0c 323c
00000050: 27b1 823d 0598 01be 6e55 aabd 114d b4bd
00000060: 04f7 92bd 8812 b1bd 29f8 da3c 4220 203c
00000070: ce38 913d 06b5 733d 9d90 d0bd 884a fabd
00000080: 3d54 173d d6b7 8dbc 6825 2ebd 6e4c 97bd
00000090: e078 a83b 87e0 12bd eb41 95bd 10cc 493c
000000a0: 34a6 843c 87ca 84bd 87ee 863c 6287 25bd
000000b0: 0299 913d 84b1 98bd 5645 37bd edd1 993c
000000c0: 5472 cdbc 6098 643b 877d bebb 7546 bc3d
000000d0: 706c bb3d 7f15 a03d 8d01 51bd 601f 6a3d
000000e0: fc06 5a3a a753 2e3d a9df 223d c43e a2bb
000000f0: 10f1 6f3d 7970 f6bc 033c 1dbd b5ee bd3c
00000100: 223f 123c 7cf8 883d c681 9c3d 6b2b 97bc
00000110: f603 96bd 02a6 9ebd 1301 7b3c f681 e03c
00000120: 82b5 5fbd 3a5a 7a3d ad7c 26bd 52dd 87bd
00000130: 9820 97bd 541b 9f3d cc7d 7fbd b5b1 a0bc
00000140: 4e64 aabd c598 d3bd 5a57 743d 6b5b ca3c
00000150: e18d 703d 71ce 913c 3c39 66bc 6660 08bd
00000160: 9bc9 1b3d bcc4 643c 1ce9 8fb9 7ff4 a3bd
00000170: 1a8d 3fbd a2f4 a73d 050b f739 c5c9 80bd
00000180: 2f06 6dbc 3b0e bebc 9427 9ebc a674 b33d
00000190: 7fcc 473c c278 35bd c09a 12bd 96da 44bd
000001a0: 7411 3bbd 6d23 403d 5587 613d bb8d 973a
000001b0: 97aa 1f3d a08b 47bc 8c58 8cbc 54b0 c33c
000001c0: d247 97bc a603 a73c d87e a93c 5cc7 843c
000001d0: 35b3 ffbc c941 45bd 70a0 e0bd cb94 8f3d
000001e0: 5ff4 83bd 0af2 c6bd dd81 3e3c fd61 42bc
000001f0: 422c 8abc dfcc b13d c0ab 9f3d 44e4 063d
00000200: 7cdc a53d 1b21 a33c ac46 bbbc 2ff5 913d
00000210: 207c 63bd 2cc9 bbbd d5ec cbbc 0caf b1bd
00000220: bf47 b6bd 36d6 06bd ba13 493d 49c7 543d
00000230: a667 d4bc 537d 7abd 71c9 1f3d 0fe9 10bc
00000240: e88a 4ebb 0b35 2bbd 8323 0ebc 6b6d 7abb
00000250: 1d0d 9dbb b2ea 3a3b 4aea fabc 2db7 97bd
00000260: ae46 21bd 1d00 3cbd 0a45 5a3d a282 43bc
00000270: ea24 82bc 9a46 2cbd fac9 ccbb 3cfc 003d
00000280: 6869 bdbd edb0 343c a5b0 523b 7d76 8abd
00000290: f71a 573b d67a 433d 6bd9 6dbd c8f6 993c
000002a0: f2ab f2bc ee90 4dbc ada3 353d abca 8f3d
000002b0: bd17 853d 2f43 4bbd fcef 883d 0408 53bd
000002c0: 8028 64bb 6779 d63c 5dd0 0dbd f851 a4bd
000002d0: 3aca 65bb 6b98 883d 1386 c33d 3b5a 333d
000002e0: 207f 8cbd 309e 2c3c 8445 a33b 2eff 093d
000002f0: 0baf 8f3d 1b02 ad3d 5db2 88bd 6022 9b3d
00000300: 8ba2 0f3d 9012 873d 1485 f9bc 742f e039
00000310: 6480 07bd 47c3 76bd 97ee 13bc 8ccb f93c
00000320: 6d37 0f3d 90ef 03bd 0f3a e43c bd25 0e3d
00000330: 3b94 25bd 2896 543d 7ec9 8ebd 1dc5 f9bc
00000340: 03bb bf3b 97a8 bb3c cacd e1bc 4f7a 113d
00000350: 8087 043d f467 483d a41e 97bd 9ad2 c53c
00000360: 73fd c8bc e547 77bd 2124 e5bd 337b 683d
00000370: b4e4 393d 175f 783d 0212 733d a71f 92bd
00000380: 965d a2bd 6bf8 613d f94c 613c 9d2b 413d
00000390: 4914 333d 0c3d 94bd 0d17 9d3d cbd6 753d
000003a0: 4e27 42bd c1a3 273d 5194 10bd b931 0abd
000003b0: 257d ecba bc24 82bd c6ca 05bd e517 933c
000003c0: 54de d4bc c40d 023d 994d 303c 2e43 823d
000003d0: 71f1 30bd d6e7 b7bc e25f 7b3d 8176 9fbd
000003e0: 012b f1bc d166 ad3d 0430 82bc 4860 f9b9
000003f0: f820 77bd d402 4abd 0501 5d3d 9e95 9f3c
0.03718037 0.020257859 0.03884203 -0.015255661 0.020042118 -0.05554771 0.057066094 -0.0228052
-0.023881879 -0.057729177 0.031456385 0.046803854 -0.049840074 0.07876473 0.09010988 0.014871299
-0.07578386 -0.08991345 -0.053273417 0.010867322 0.063814454 -0.12655647 -0.08317076 -0.08803762
-0.07176021 -0.08646113 0.02672966 0.009773316 0.07090913 0.05949881 -0.10183833 -0.12221247
0.03694557 -0.017299574 -0.042516142 -0.07387625 0.0051413625 -0.035858657 -0.072879635 0.012316719
0.016192533 -0.064839415 0.01647116 -0.040412314 0.07109262 -0.074557334 -0.04474386 0.018776858
-0.02507893 0.0034880862 -0.005813304 0.09193126 0.09151542 0.078166 -0.05102687 0.057158828
0.0008317081 0.042560246 0.03976408 -0.00495133 0.058579504 -0.030082928 -0.03838731 0.023185113
0.008926185 0.0668802 0.0764194 -0.01845332 -0.07324974 -0.07746507 0.01532008 0.02740572
-0.05461646 0.061121203 -0.040646244 -0.066340104 -0.07379264 0.07768884 -0.06237583 -0.019615987
-0.08319913 -0.10331873 0.059653617 0.024701795 0.058729056 0.017798634 -0.014051732 -0.033295058
0.038034063 0.013962921 -0.00027448765 -0.08005618 -0.046765424 0.08200957 0.0004711972 -0.062884845
-0.014466806 -0.023200145 -0.019305982 0.08762483 0.012194752 -0.044304617 -0.035792112 -0.048060022
-0.04567094 0.046908785 0.055060703 0.0011562625 0.038981047 -0.012179285 -0.017132066 0.02388779
-0.018466864 0.020387482 0.020690367 0.016208343 -0.031213382 -0.04815844 -0.10968101 0.07010802
-0.064430945 -0.09714134 0.0116276415 -0.011864183 -0.016866807 0.08681654 0.077964306 0.032932535
0.08098695 0.019913247 -0.022860847 0.07126843 -0.055538297 -0.0916923 -0.024893204 -0.08675966
-0.08900403 -0.03291913 0.04909108 0.051947866 -0.02592833 -0.061154675 0.03901047 -0.008844628
-0.00315159 -0.041798633 -0.008675459 -0.003821219 -0.004792823 0.0028521237 -0.030629296 -0.07407985
-0.039374046 -0.045898546 0.053288497 -0.011933001 -0.015886743 -0.04205952 -0.0062496634 0.03149055
-0.0924862 0.0110285105 0.0032148745 -0.06760881 0.0032822469 0.047724567 -0.058068674 0.018794432
-0.029623006 -0.012546761 0.044345547 0.07021078 0.06498668 -0.04962462 0.066863984 -0.051521316
-0.003481418 0.026180936 -0.03462254 -0.08023447 -0.0035063163 0.066696964 0.09547057 0.043787222
-0.06860185 0.010535762 0.004982652 0.033690624 0.07015809 0.08447667 -0.06674645 0.07574916
0.035067122 0.065953374 -0.030458964 0.00042759965 -0.033081427 -0.060244825 -0.009029052 0.030492567
0.034964968 -0.032210886 0.027859716 0.03470396 -0.040424567 0.051901013 -0.06972025 -0.030489499
0.005851151 0.022907538 -0.027563948 0.035517033 0.032355785 0.048927262 -0.07378891 0.024148274
-0.024534917 -0.0603713 -0.11188532 0.056758117 0.045384124 0.06063756 0.059343345 -0.071349435
-0.07928006 0.05516855 0.013751262 0.047160733 0.043720517 -0.07238206 0.07670412 0.060019296
-0.047400765 0.040927652 -0.035297696 -0.033738825 -0.0018042667 -0.06354663 -0.032664083 0.01795573
-0.02598492 0.03175141 0.010760688 0.0636047 -0.043199006 -0.022449415 0.061370738 -0.07786275
-0.029439451 0.08466876 -0.015892036 -0.00047564716 -0.060334176 -0.049319103 0.05395605 0.019480523

features.3.bias f4 [32]
00000000: 67bd 613d c608 873d d4c8 bb3c 8466 59bd
00000010: e5da 2a3d 1806 82bd aa57 cebc b67b c93c
00000020: f719 dcbb 80eb 96ba 9658 7f3b 111c 1fbd
00000030: d041 113d 8acc 773d 34b8 c9bb 8b38 9dbc
00000040: 5866 273c 8112 9f3d 2ff0 78bd 8301 c0bb
00000050: 6ede 02b8 40b1 d93c 68ab 2c3c 162c 083c
00000060: 88a6 5a3d c728 a6bd de27 ab3d b25d 533c
00000070: 3aaa 2a3c ee76 9b3c ac53 5e3b 4b85 f83c
0.05511227 0.0659347 0.02292291 -0.053076282 0.04171266 -0.063488185 -0.025188286 0.024595123
-0.0067169624 -0.0011514276 0.0038962713 -0.038845126 0.035463154 0.060497798 -0.006155992 -0.019192
0.010217272 0.07767201 -0.060775932 -0.005859555 -3.120157e-05 0.026573777 0.010538913 0.008311292
0.053381473 -0.081132464 0.083572134 0.012900757 0.010416562 0.018977609 0.0033924384 0.030336997

features.4.weight f4 [32]
00000000: f50d 663f 2043 793f 16d4 743f 5099 763f
00000010: 97e6 763f c6c0 723f 5500 703f 51b3 753f
00000020: 9943 743f 6386 753f cfe4 7d3f 2742 773f
00000030: ac63 753f e3c6 6f3f e3f1 793f be62 733f
00000040: 3834 6f3f 4558 763f 5cd3 723f 09f1 743f
00000050: a5ea 723f 9860 753f 7769 6a3f 6b49 723f
00000060: bf3c 783f ffbf 6b3f fd5c 723f ace2 743f
00000070: ac08 763f c244 733f 66bd 6f3f 099c 703f
0.89865047 0.9736805 0.9563612 0.96327686 0.964456 0.948254 0.93750507 0.9597674
0.95415646 0.9590818 0.9917726 0.96585315 0.9585521 0.9366285 0.97634715 0.95072544
0.93439054 0.9622844 0.9485376 0.9568029 0.9488929 0.95850515 0.91567177 0.94643277
0.9696769 0.9208984 0.9467314 0.95658374 0.9610698 0.9502679 0.93648374 0.9398809

features.4.bias f4 [32]
00000000: fa49 a9bd f92a e6bc 9671 4abd 0481 5abd
00000010: fbac 0ebd 6d9f 70bd 0496 65bd 675f 60bd
00000020: 6999 2abd 5ec6 5fbd a136 19bd af9e 38bd
00000030: 4d64 39bd 9614 7fbd 695c 44bd 5a1b 8fbd
00000040: 5e2b b8bd 2fda 6ebd d461 51bd bc7b 1abd
00000050: 766a 5bbd 38f5 15bd 3fe7 8cbd e935 4dbd
00000060: 8d18 c9bc a0f4 b7bd 1d49 5abd 952a 58bd
00000070: 5188 1fbd 0816 29bd 6b4f 9ebd 5671 7abd
-0.08266063 -0.028096663 -0.04942473 -0.053345695 -0.034832936 -0.05874579 -0.05605127 -0.054778483
-0.04165021 -0.054632537 -0.037405614 -0.045073207 -0.04526167 -0.06227549 -0.04793969 -0.06987639
-0.08992647 -0.058313545 -0.051118687 -0.03771566 -0.053568326 -0.036610812 -0.06880044 -0.05010024
-0.02454784 -0.089822054 -0.053292383 -0.052774984 -0.03894836 -0.041280776 -0.077299915 -0.06114324

features.4.running_mean f4 [32]
00000000: 8a80 be3d b44b 2d3e 7d04 a0bd 8c68 8a3d
00000010: 1c2e 803e 659c 4a3c df47 e7bd 5452 ec3d
00000020: e550 883c d1cf 303e 4433 963d 1643 88be
00000030: a402 173d e645 063e f06d 253e 1c60 f4bd
00000040: 653b 403e 1abc 113f e4da 60be 1751 25be
00000050: 2f10 a53d a256 90bc 5f5e 06be d860 52be
00000060: e7dc f93d 88f2 14be 46e2 0d3d 840b 9c3d
00000070: f358 873c 0914 01be e8f6 86bd 4789 e5bb
0.09301861 0.1692341 -0.07813356 0.06758222 0.2503518 0.012366389 -0.11293005 0.1153914
0.016640136 0.17266776 0.07333997 -0.26613683 0.036867753 0.13112602 0.16155219 -0.11932394
0.18772657 0.56927645 -0.219585 -0.16144215 0.080597274 -0.017619435 -0.13121937 -0.20544755
0.12200337 -0.14545643 0.03463962 0.07619384 0.016521906 -0.12605299 -0.065900624 -0.00700489

features.4.running_var f4 [32]
00000000: 76a8 b63e 4e00 883e 66a5 ca3e 10eb 4b3e
00000010: 155e 6f3e e59b 8e3e 690e c53e 0ae5 2e3e
00000020: a270 553e 3c90 b33e da61 4c3e e882 de3e
00000030: 412f ac3e 63bd a33e 27d7 a13e 68df 6d3e
00000040: 10e8 933e 200a 023f 2266 e53e fd9a e03e
00000050: 0796 c93e 8506 ac3e bce1 3d3e 004c e63e
00000060: 9a79 7c3e 2dbd 943e f1a4 dd3e 2434 ec3e
00000070: 4e7d ab3e 0e2c 013f e3ed ee3e 7fad dc3e
0.356754 0.26562732 0.39579314 0.19913888 0.23375733 0.27853313 0.38487557 0.17079559
0.20843747 0.3507098 0.19959202 0.4345925 0.33629802 0.31980428 0.3160946 0.23229754
0.28887987 0.507967 0.44804484 0.43868247 0.39372274 0.33598724 0.18543142 0.44979858
0.24655762 0.2905058 0.43289903 0.4613353 0.33494037 0.5045785 0.46665868 0.43101117

regressor.1.weight f4 [16, 3200]
00000000: 74c0 f03b e57a 1b3b 2d18 c93b a180 833c
00000010: 39ea 853c e3c9 c53c 4ba4 fe3b 5ede 733c
00000020: 2a82 2b3c f2dd 773c e2bf d7bb acca 1f3b
00000030: 23c6 b7bb 3e17 1bbc 75c1 b93a 3e40 553c
00000040: 7569 79bb 9951 4a3c fb8a 0bbc 6022 83bb
00000050: 22be eebb 21c6 afbc de69 98bc 2a11 8e3c
00000060: 636c b2ba 201c a8bb 1aee f6bb 2ffa 323c
00000070: e31a a5bc cf3d dfbb 6c94 423c 76b3 8b3b
00000080: 45e3 58bc 4e52 a73b caf1 3dbc 65db 4c3c
00000090: ed3f f2bb c851 013c 2875 62bb 85cd 82bb
000000a0: 1e2f 433c f12b af3b de28 853c a671 a53b
000000b0: 651b be3b 3341 c5bb 6af1 1bba f015 483c
000000c0: 0229 d2bb b29f 903b 325c 803c 45e7 65bb
000000d0: 9273 be3b c9f1 aebc 53fd 6cbc 632c aa3b
000000e0: 1f84 803a 4413 5ebc 58e6 a7bc 661b 703c
000000f0: 7a55 bdba 3bca 463c 490a d23b f335 eaba
00000100: 374a 653c 3ccb 063c 295d ea3b f590 5a3b
00000110: efdf a8ba 6941 253c bafb bd3a 1c09 65bc
00000120: 35b9 663b 8a44 e03a b417 19bc 8a8a 3b3c
00000130: 25cd bc3b 890c 243b 5229 33bb 0631 a5bb
00000140: 0d37 573b d793 213b 6bdc 5cbc 93cb 9b37
00000150: 8839 2e3b 00e2 5fbc 33f0 93bb 532b 3b3c
00000160: 49d7 cebc a66d 80bc 5da7 acba 19af 1c3c
00000170: 13fa 5bbb a25d 2fbb 5563 a33b 185e 85bc
00000180: cf2c 7cbb b042 70bc 0708 d93b 3240 7d3b
00000190: 41dc 813c a9fb 383c 9c63 b3bb 9333 603c
000001a0: ea54 223c 59dc 613c fcd7 21bc ca3a af3c
000001b0: e052 c2ba a33f b93c a4b9 9e3c 395d 24bb
000001c0: 216f 34bc 7766 b8bc b52c 0dbd 767f 2fbb
000001d0: c6f3 80bc cf13 62bc 68da c9bc 7d88 cf3c
000001e0: 4648 cb3c 930f 7abb 842c e4bc d858 253a
000001f0: 5fa0 a9bc 0ec1 2bbc ad0e dabc 7539 e5bc
00000200: 91ce a9bc 35ed 823c a2e5 713c 56e9 723b
00000210: e1f6 4fbc 2f76 09bc 0ec8 eabc 4be9 3dbb
00000220: 116d 80bc c263 a3bc e9fe a0bc 4ef3 023d
00000230: 33fc a93b 17e3 03b9 63c7 94bc 7a0a 0fbc
00000240: b025 15bc 371d 39bb 552c bebc 49e8 a7bc
00000250: 189f 413b b55a c63b e4d2 a43c f193 76bc
00000260: a443 5abc 3dbb 5cbc 0782 01bd 1a78 aebc
00000270: 042e 68bc 445a 98bc dd69 bbbc 71e3 7539
00000280: 9692 7f38 05de 7ebb f0b0 8d3b 92b7 05bc
00000290: 2e86 e6bc 75c7 14bc 957e 2db8 cdae 34bc
000002a0: 6ff2 e6bb 4802 fb3a 5a31 f63b 1c3a 9ebc
000002b0: e1b7 bcbc 167e aabc 9adf d7bc 458d b7bc
000002c0: 6245 173b fae6 bebc 1d6f a9bc 309a 5f3c
000002d0: 74e7 a23c db70 ab3b c248 a1bc 8c83 26ba
000002e0: aa3c a7bc ab59 29bc d6d6 c8bc 9ab7 cf3a
000002f0: 952c c23a 958e b33c 61c7 1f3c 379b e63c
00000300: 4b8a 8b3c 7916 c4bb 1f38 803c 35f6 d23c
00000310: b6b0 273c 31c9 a33c 8b3e cb3b b0bb 6dbb
00000320: b928 adbb 3a43 aa3c 55e1 f239 89ed e83b
00000330: 49e1 f63b 98da 1b3c 8f4c 1f3b 7872 cc3c
00000340: 6fab 8d3a 89e7 c5ba a5a9 ebbb 54f0 a2bc
00000350: 49e7 76bc f883 4c3c 45cd 453c 6498 bc3b
00000360: 1d71 aabb db24 0b3c f879 483c 61ae 403c
00000370: a1a0 c9bb cf8f 983a 4aae 9d3c aa88 53bc
00000380: f40d 493c 6394 6d3c 92d6 66bc 9cb2 493a
00000390: 4a29 00bc 33d6 02bc 52f8 f5b8 57bc 5ebb
000003a0: 33cf 50bc e5f6 113c fcda 333c 439a 2ebc
000003b0: 6c0d 173c 5ae7 8b3c 6778 8a3b be34 053c
000003c0: cbab 9fbc 190a c2bb 1c6c b5bb b1ca c5bb
000003d0: e5ca 303c ff4d 0c3c 3ad8 583c a80d 97bb
000003e0: e22c d5bb 18ac 843c 03e6 aebb 18ec 293c
000003f0: 30c5 30bc 87d7 67ba 2de6 62bb 1686 703a
0.007347161 0.0023724374 0.006136915 0.016052546 0.016347038 0.024144119 0.00777105 0.014884559
0.010468045 0.0151285995 -0.0065841535 0.0024382276 -0.0056083365 -0.009465991 0.0014172035 0.013015805
-0.0038057242 0.012348556 -0.008517022 -0.0040019006 -0.007285849 -0.02145678 -0.018605169 0.017342169
-0.0013612624 -0.005130306 -0.007535708 0.010923906 -0.020154422 -0.006812788 0.011876207 0.004263337
-0.013237779 0.005106247 -0.011593292 0.01250348 -0.0073928745 0.007893033 -0.0034554694 -0.003991785
0.011913089 0.0053458144 0.016254839 0.0050489483 0.0058016055 -0.0060197352 -0.0005948754 0.012212262
-0.00641358 0.0044135684 0.015668962 -0.0035080474 0.005812117 -0.021355527 -0.014464694 0.0051932796
0.0009805 -0.013554398 -0.020495579 0.01465497 -0.001444503 0.012133176 0.0064099175 -0.0017868861
0.013994745 0.008227166 0.007152219 0.0033350561 -0.001288412 0.010086396 0.0014494576 -0.013979223
0.0035205607 0.001711027 -0.00934403 0.0114466045 0.00576176 0.0025031886 -0.0027337861 -0.0050412444
0.003283921 0.002465477 -0.013480286 1.8572237e-05 0.0026584584 -0.013664722 -0.004514718 0.0114239035
-0.02524914 -0.015677284 -0.0013172437 0.009563231 -0.0033565804 -0.002675869 0.0049862065 -0.016280219
-0.0038478856 -0.014664337 0.0066232714 0.0038643 0.015852096 0.011290469 -0.005474521 0.013684171
0.00990794 0.013785445 -0.009878155 0.021390337 -0.0014825724 0.022613352 0.01937563 -0.002507998
-0.011012823 -0.022509797 -0.034466464 -0.0026778853 -0.01574124 -0.013798668 -0.024640277 0.025333637
0.024814736 -0.0038156256 -0.027853258 0.0006307489 -0.020706354 -0.01048304 -0.026618326 -0.0279815
-0.020728381 0.01598225 0.014764221 0.0037065349 -0.012693138 -0.008389994 -0.028659847 -0.0028978165
-0.015677007 -0.01994503 -0.0196528 0.031970315 0.005187535 -0.00012577731 -0.018161481 -0.008730525
-0.009103224 -0.0028246173 -0.023214499 -0.020496504 0.002954429 0.0060532936 0.020120092 -0.01504992
-0.013321791 -0.013472375 -0.031618144 -0.021297503 -0.014171127 -0.01859773 -0.022877628 0.0002344975
6.0933256e-05 -0.0038889658 0.004324071 -0.008161442 -0.028140154 -0.009080757 -4.1364303e-05 -0.011028004
-0.0070479433 0.001915046 0.0075132074 -0.019314818 -0.023036899 -0.020812076 -0.026351739 -0.02240623
0.0023082127 -0.023303498 -0.020682866 0.013647601 0.019885756 0.0052319593 -0.019688014 -0.00063519995
-0.020414669 -0.01033632 -0.024516504 0.0015847564 0.0014814312 0.021918574 0.0097521255 0.028150184
0.017033717 -0.0059841243 0.01565176 0.025752166 0.010235002 0.019993396 0.006202524 -0.00362752
-0.0052843955 0.02078401 0.00046325722 0.0071083945 0.0075341803 0.009512566 0.0024307107 0.024956927
0.0010808537 -0.001509891 -0.007191854 -0.019889988 -0.015069791 0.012482636 0.012072866 0.005755471
-0.0052014724 0.008492674 0.012236111 0.011760325 -0.0061531817 0.0011639538 0.019248147 -0.012911001
0.012271393 0.01450071 -0.0140892435 0.00076941564 -0.007822344 -0.007985639 -0.00011728764 -0.003398677
-0.012744713 0.008908962 0.010977503 -0.010656896 0.009219509 0.01707809 0.004225779 0.0081302505
-0.019491097 -0.005921614 -0.0055365693 -0.0060361256 0.010790561 0.008563518 0.013235146 -0.0046097822
-0.0065055946 0.016195342 -0.005337478 0.010371231 -0.010789201 -0.0008844067 -0.0034622059 0.0009175254

regressor.1.bias f4 [16]
00000000: 59fb c83c c8cd 1fbd 1b53 a3bc ce27 07bc
00000010: 20da 56bb 81f8 073c 22fb ebbc c4ca 4abc
00000020: 3f50 bebc f55c adbc 5764 3cbc 08e6 d2bc
00000030: 2459 cabc 5ea5 6fbb de21 14bb 1870 bbbc
0.024533914 -0.039014608 -0.019937089 -0.008249236 -0.0032783821 0.008298994 -0.028806273 -0.012377445
-0.023231624 -0.02116249 -0.011498532 -0.025744453 -0.024700709 -0.0036567072 -0.0022603194 -0.022880599

regressor.3.weight f4 [1, 16]
00000000: aa1d c63d d6ce 113e 10b7 c5bc a611 89bc
00000010: b0af c0bc 85ff 623a 5e4b 513e 7954 41bb
00000020: 483c 38be 858a 423e 39c2 843a 26d3 d8bd
00000030: 8e20 28bd 6669 553e 848d d03d fe50 95bd
0.09673627 0.14239058 -0.024135143 -0.016732048 -0.023521274 0.0008659291 0.20438907 -0.0029499813
-0.17991745 0.18998154 0.0010128684 -0.10587148 -0.04104667 0.20840988 0.10183242 -0.07290839
